…
I0806 09:45:16.328030 11748 net.cpp:287] The NetState phase (0) differed from the phase (1) specified by a rule in layer mnist
I0806 09:45:16.328030 11748 net.cpp:287] The NetState phase (0) differed from the phase (1) specified by a rule in layer accuracy
I0806 09:45:16.328030 11748 net.cpp:42] Initializing net from parameters: 
name: "LeNet"
state {
  phase: TRAIN
}
layer {
  name: "mnist"
  type: "Data"
  top: "data"
  top: "label"
  include {
    phase: TRAIN
  }
  transform_param {
    scale: 0.00390625
  }
  data_param {
    source: "mnist-train-leveldb"
    batch_size: 64
    backend: LEVELDB
  }
}
layer {
  name: "conv1"
  type: "Convolution"
  bottom: "data"
  top: "conv1"
  param {
    lr_mult: 1
  }
  param {
    lr_mult: 2
  }
  convolution_param {
    num_output: 30
    kernel_size: 7
    stride: 1
    weight_filler {
      type: "xavier"
    }
    bias_filler {
      type: "constant"
    }
  }
}
layer {
  name: "relu1"
  type: "ReLU"
  bottom: "conv1"
  top: "conv1"
}
layer {
  name: "conv1_bn"
  type: "BN"
  bottom: "conv1"
  top: "conv1_bn"
  param {
    lr_mult: 1
    decay_mult: 0
  }
  param {
    lr_mult: 1
    decay_mult: 0
  }
  bn_param {
    scale_filler {
      type: "constant"
      value: 1
    }
    shift_filler {
      type: "constant"
      value: 0
    }
  }
}
layer {
  name: "pool1"
  type: "Pooling"
  bottom: "conv1_bn"
  top: "pool1"
  pooling_param {
    pool: MAX
    kernel_size: 2
    stride: 2
  }
}
layer {
  name: "conv2"
  type: "Convolution"
  bottom: "pool1"
  top: "conv2"
  param {
    lr_mult: 1
  }
  param {
    lr_mult: 2
  }
  convolution_param {
    num_output: 70
    kernel_size: 3
    stride: 1
    weight_filler {
      type: "xavier"
    }
    bias_filler {
      type: "constant"
    }
  }
}
layer {
  name: "relu2"
  type: "ReLU"
  bottom: "conv2"
  top: "conv2"
}
layer {
  name: "conv2_bn"
  type: "BN"
  bottom: "conv2"
  top: "conv2_bn"
  param {
    lr_mult: 1
    decay_mult: 0
  }
  param {
    lr_mult: 1
    decay_mult: 0
  }
  bn_param {
    scale_filler {
      type: "constant"
      value: 1
    }
    shift_filler {
      type: "constant"
      value: 0
    }
  }
}
layer {
  name: "drop1"
  type: "Dropout"
  bottom: "conv2_bn"
  top: "conv2_bn"
  dropout_param {
    dropout_ratio: 0.1
  }
}
layer {
  name: "conv2_1"
  type: "Convolution"
  bottom: "conv2_bn"
  top: "conv2_1"
  param {
    lr_mult: 1
  }
  param {
    lr_mult: 2
  }
  convolution_param {
    num_output: 70
    pad: 1
    kernel_size: 3
    stride: 1
    weight_filler {
      type: "xavier"
    }
    bias_filler {
      type: "constant"
    }
  }
}
layer {
  name: "relu2"
  type: "ReLU"
  bottom: "conv2_1"
  top: "conv2_1"
}
layer {
  name: "conv2_bn_1"
  type: "BN"
  bottom: "conv2_1"
  top: "conv2_bn_1"
  param {
    lr_mult: 1
    decay_mult: 0
  }
  param {
    lr_mult: 1
    decay_mult: 0
  }
  bn_param {
    scale_filler {
      type: "constant"
      value: 1
    }
    shift_filler {
      type: "constant"
      value: 0
    }
  }
}
layer {
  name: "drop1_1"
  type: "Dropout"
  bottom: "conv2_bn_1"
  top: "conv2_bn_1"
  dropout_param {
    dropout_ratio: 0.1
  }
}
layer {
  name: "pool2"
  type: "Pooling"
  bottom: "conv2_bn_1"
  top: "pool2"
  pooling_param {
    pool: MAX
    kernel_size: 2
    stride: 2
  }
}
layer {
  name: "ip1"
  type: "InnerProduct"
  bottom: "pool2"
  top: "ip1"
  param {
    lr_mult: 1
  }
  param {
    lr_mult: 2
  }
  inner_product_param {
    num_output: 300
    weight_filler {
      type: "xavier"
    }
    bias_filler {
      type: "constant"
    }
  }
}
layer {
  name: "relu3"
  type: "ReLU"
  bottom: "ip1"
  top: "ip1"
}
layer {
  name: "drop2"
  type: "Dropout"
  bottom: "ip1"
  top: "ip1"
  dropout_param {
    dropout_ratio: 0.3
  }
}
layer {
  name: "ip3"
  type: "InnerProduct"
  bottom: "ip1"
  top: "ip3"
  param {
    lr_mult: 1
  }
  param {
    lr_mult: 2
  }
  inner_product_param {
    num_output: 10
    weight_filler {
      type: "xavier"
    }
    bias_filler {
      type: "constant"
    }
  }
}
layer {
  name: "loss"
  type: "SoftmaxWithLoss"
  bottom: "ip3"
  bottom: "label"
  top: "loss"
}
I0806 09:45:16.377032 11748 layer_factory.hpp:74] Creating layer mnist
I0806 09:45:16.378032 11748 net.cpp:90] Creating Layer mnist
I0806 09:45:16.378032 11748 net.cpp:368] mnist -> data
I0806 09:45:16.379032 11748 net.cpp:368] mnist -> label
I0806 09:45:16.379032 11748 net.cpp:120] Setting up mnist
I0806 09:45:16.386034 11748 db.cpp:20] Opened leveldb mnist-train-leveldb
I0806 09:45:16.386034 11748 data_layer.cpp:52] output data size: 64,1,28,28
I0806 09:45:16.387033 11748 net.cpp:127] Top shape: 64 1 28 28 (50176)
I0806 09:45:16.387033 11748 net.cpp:127] Top shape: 64 (64)
I0806 09:45:16.387033 11748 layer_factory.hpp:74] Creating layer conv1
I0806 09:45:16.388033 11748 net.cpp:90] Creating Layer conv1
I0806 09:45:16.388033 11748 net.cpp:410] conv1 <- data
I0806 09:45:16.388033 11748 net.cpp:368] conv1 -> conv1
I0806 09:45:16.388033 11748 net.cpp:120] Setting up conv1
I0806 09:45:16.389034 11748 common.cpp:24] System entropy source not available, using fallback algorithm to generate seed instead.
I0806 09:45:16.457037 11748 net.cpp:127] Top shape: 64 30 22 22 (929280)
I0806 09:45:16.457037 11748 layer_factory.hpp:74] Creating layer relu1
I0806 09:45:16.458037 11748 net.cpp:90] Creating Layer relu1
I0806 09:45:16.458037 11748 net.cpp:410] relu1 <- conv1
I0806 09:45:16.458037 11748 net.cpp:357] relu1 -> conv1 (in-place)
I0806 09:45:16.459038 11748 net.cpp:120] Setting up relu1
I0806 09:45:16.459038 11748 net.cpp:127] Top shape: 64 30 22 22 (929280)
I0806 09:45:16.459038 11748 layer_factory.hpp:74] Creating layer conv1_bn
I0806 09:45:16.460037 11748 net.cpp:90] Creating Layer conv1_bn
I0806 09:45:16.460037 11748 net.cpp:410] conv1_bn <- conv1
I0806 09:45:16.460037 11748 net.cpp:368] conv1_bn -> conv1_bn
I0806 09:45:16.461037 11748 net.cpp:120] Setting up conv1_bn
I0806 09:45:16.461037 11748 net.cpp:127] Top shape: 64 30 22 22 (929280)
I0806 09:45:16.461037 11748 layer_factory.hpp:74] Creating layer pool1
I0806 09:45:16.462038 11748 net.cpp:90] Creating Layer pool1
I0806 09:45:16.462038 11748 net.cpp:410] pool1 <- conv1_bn
I0806 09:45:16.462038 11748 net.cpp:368] pool1 -> pool1
I0806 09:45:16.463037 11748 net.cpp:120] Setting up pool1
I0806 09:45:16.463037 11748 net.cpp:127] Top shape: 64 30 11 11 (232320)
I0806 09:45:16.463037 11748 layer_factory.hpp:74] Creating layer conv2
I0806 09:45:16.464037 11748 net.cpp:90] Creating Layer conv2
I0806 09:45:16.464037 11748 net.cpp:410] conv2 <- pool1
I0806 09:45:16.464037 11748 net.cpp:368] conv2 -> conv2
I0806 09:45:16.464037 11748 net.cpp:120] Setting up conv2
I0806 09:45:16.465037 11748 net.cpp:127] Top shape: 64 70 9 9 (362880)
I0806 09:45:16.466037 11748 layer_factory.hpp:74] Creating layer relu2
I0806 09:45:16.466037 11748 net.cpp:90] Creating Layer relu2
I0806 09:45:16.466037 11748 net.cpp:410] relu2 <- conv2
I0806 09:45:16.466037 11748 net.cpp:357] relu2 -> conv2 (in-place)
I0806 09:45:16.467038 11748 net.cpp:120] Setting up relu2
I0806 09:45:16.467038 11748 net.cpp:127] Top shape: 64 70 9 9 (362880)
I0806 09:45:16.467038 11748 layer_factory.hpp:74] Creating layer conv2_bn
I0806 09:45:16.467038 11748 net.cpp:90] Creating Layer conv2_bn
I0806 09:45:16.468039 11748 net.cpp:410] conv2_bn <- conv2
I0806 09:45:16.468039 11748 net.cpp:368] conv2_bn -> conv2_bn
I0806 09:45:16.468039 11748 net.cpp:120] Setting up conv2_bn
I0806 09:45:16.468039 11748 net.cpp:127] Top shape: 64 70 9 9 (362880)
I0806 09:45:16.469038 11748 layer_factory.hpp:74] Creating layer drop1
I0806 09:45:16.469038 11748 net.cpp:90] Creating Layer drop1
I0806 09:45:16.469038 11748 net.cpp:410] drop1 <- conv2_bn
I0806 09:45:16.469038 11748 net.cpp:357] drop1 -> conv2_bn (in-place)
I0806 09:45:16.470038 11748 net.cpp:120] Setting up drop1
I0806 09:45:16.470038 11748 net.cpp:127] Top shape: 64 70 9 9 (362880)
I0806 09:45:16.470038 11748 layer_factory.hpp:74] Creating layer conv2_1
I0806 09:45:16.470038 11748 net.cpp:90] Creating Layer conv2_1
I0806 09:45:16.471038 11748 net.cpp:410] conv2_1 <- conv2_bn
I0806 09:45:16.471038 11748 net.cpp:368] conv2_1 -> conv2_1
I0806 09:45:16.471038 11748 net.cpp:120] Setting up conv2_1
I0806 09:45:16.472038 11748 net.cpp:127] Top shape: 64 70 9 9 (362880)
I0806 09:45:16.472038 11748 layer_factory.hpp:74] Creating layer relu2
I0806 09:45:16.473038 11748 net.cpp:90] Creating Layer relu2
I0806 09:45:16.473038 11748 net.cpp:410] relu2 <- conv2_1
I0806 09:45:16.473038 11748 net.cpp:357] relu2 -> conv2_1 (in-place)
I0806 09:45:16.473038 11748 net.cpp:120] Setting up relu2
I0806 09:45:16.474038 11748 net.cpp:127] Top shape: 64 70 9 9 (362880)
I0806 09:45:16.474038 11748 layer_factory.hpp:74] Creating layer conv2_bn_1
I0806 09:45:16.474038 11748 net.cpp:90] Creating Layer conv2_bn_1
I0806 09:45:16.475039 11748 net.cpp:410] conv2_bn_1 <- conv2_1
I0806 09:45:16.475039 11748 net.cpp:368] conv2_bn_1 -> conv2_bn_1
I0806 09:45:16.475039 11748 net.cpp:120] Setting up conv2_bn_1
I0806 09:45:16.475039 11748 net.cpp:127] Top shape: 64 70 9 9 (362880)
I0806 09:45:16.476038 11748 layer_factory.hpp:74] Creating layer drop1_1
I0806 09:45:16.476038 11748 net.cpp:90] Creating Layer drop1_1
I0806 09:45:16.476038 11748 net.cpp:410] drop1_1 <- conv2_bn_1
I0806 09:45:16.476038 11748 net.cpp:357] drop1_1 -> conv2_bn_1 (in-place)
I0806 09:45:16.476038 11748 net.cpp:120] Setting up drop1_1
I0806 09:45:16.477038 11748 net.cpp:127] Top shape: 64 70 9 9 (362880)
I0806 09:45:16.477038 11748 layer_factory.hpp:74] Creating layer pool2
I0806 09:45:16.477038 11748 net.cpp:90] Creating Layer pool2
I0806 09:45:16.477038 11748 net.cpp:410] pool2 <- conv2_bn_1
I0806 09:45:16.478039 11748 net.cpp:368] pool2 -> pool2
I0806 09:45:16.478039 11748 net.cpp:120] Setting up pool2
I0806 09:45:16.478039 11748 net.cpp:127] Top shape: 64 70 5 5 (112000)
I0806 09:45:16.479038 11748 layer_factory.hpp:74] Creating layer ip1
I0806 09:45:16.479038 11748 net.cpp:90] Creating Layer ip1
I0806 09:45:16.479038 11748 net.cpp:410] ip1 <- pool2
I0806 09:45:16.480038 11748 net.cpp:368] ip1 -> ip1
I0806 09:45:16.480038 11748 net.cpp:120] Setting up ip1
I0806 09:45:16.484038 11748 net.cpp:127] Top shape: 64 300 (19200)
I0806 09:45:16.484038 11748 layer_factory.hpp:74] Creating layer relu3
I0806 09:45:16.484038 11748 net.cpp:90] Creating Layer relu3
I0806 09:45:16.485039 11748 net.cpp:410] relu3 <- ip1
I0806 09:45:16.485039 11748 net.cpp:357] relu3 -> ip1 (in-place)
I0806 09:45:16.485039 11748 net.cpp:120] Setting up relu3
I0806 09:45:16.486039 11748 net.cpp:127] Top shape: 64 300 (19200)
I0806 09:45:16.486039 11748 layer_factory.hpp:74] Creating layer drop2
I0806 09:45:16.486039 11748 net.cpp:90] Creating Layer drop2
I0806 09:45:16.486039 11748 net.cpp:410] drop2 <- ip1
I0806 09:45:16.487040 11748 net.cpp:357] drop2 -> ip1 (in-place)
I0806 09:45:16.487040 11748 net.cpp:120] Setting up drop2
I0806 09:45:16.487040 11748 net.cpp:127] Top shape: 64 300 (19200)
I0806 09:45:16.487040 11748 layer_factory.hpp:74] Creating layer ip3
I0806 09:45:16.487040 11748 net.cpp:90] Creating Layer ip3
I0806 09:45:16.488039 11748 net.cpp:410] ip3 <- ip1
I0806 09:45:16.488039 11748 net.cpp:368] ip3 -> ip3
I0806 09:45:16.488039 11748 net.cpp:120] Setting up ip3
I0806 09:45:16.488039 11748 net.cpp:127] Top shape: 64 10 (640)
I0806 09:45:16.489039 11748 layer_factory.hpp:74] Creating layer loss
I0806 09:45:16.489039 11748 net.cpp:90] Creating Layer loss
I0806 09:45:16.489039 11748 net.cpp:410] loss <- ip3
I0806 09:45:16.489039 11748 net.cpp:410] loss <- label
I0806 09:45:16.490039 11748 net.cpp:368] loss -> loss
I0806 09:45:16.490039 11748 net.cpp:120] Setting up loss
I0806 09:45:16.490039 11748 layer_factory.hpp:74] Creating layer loss
…
I0806 09:45:16.497040 11748 solver.cpp:154] Creating test net (#0) specified by net file: lenet_train_test.prototxt
I0806 09:45:16.498039 11748 net.cpp:287] The NetState phase (1) differed from the phase (0) specified by a rule in layer mnist
I0806 09:45:16.498039 11748 net.cpp:42] Initializing net from parameters: 
name: "LeNet"
state {
  phase: TEST
}
layer {
  name: "mnist"
  type: "Data"
  top: "data"
  top: "label"
  include {
    phase: TEST
  }
  transform_param {
    scale: 0.00390625
  }
  data_param {
    source: "mnist-test-leveldb"
    batch_size: 100
    backend: LEVELDB
  }
}
layer {
  name: "conv1"
  type: "Convolution"
  bottom: "data"
  top: "conv1"
  param {
    lr_mult: 1
  }
  param {
    lr_mult: 2
  }
  convolution_param {
    num_output: 30
    kernel_size: 7
    stride: 1
    weight_filler {
      type: "xavier"
    }
    bias_filler {
      type: "constant"
    }
  }
}
layer {
  name: "relu1"
  type: "ReLU"
  bottom: "conv1"
  top: "conv1"
}
layer {
  name: "conv1_bn"
  type: "BN"
  bottom: "conv1"
  top: "conv1_bn"
  param {
    lr_mult: 1
    decay_mult: 0
  }
  param {
    lr_mult: 1
    decay_mult: 0
  }
  bn_param {
    scale_filler {
      type: "constant"
      value: 1
    }
    shift_filler {
      type: "constant"
      value: 0
    }
  }
}
layer {
  name: "pool1"
  type: "Pooling"
  bottom: "conv1_bn"
  top: "pool1"
  pooling_param {
    pool: MAX
    kernel_size: 2
    stride: 2
  }
}
layer {
  name: "conv2"
  type: "Convolution"
  bottom: "pool1"
  top: "conv2"
  param {
    lr_mult: 1
  }
  param {
    lr_mult: 2
  }
  convolution_param {
    num_output: 70
    kernel_size: 3
    stride: 1
    weight_filler {
      type: "xavier"
    }
    bias_filler {
      type: "constant"
    }
  }
}
layer {
  name: "relu2"
  type: "ReLU"
  bottom: "conv2"
  top: "conv2"
}
layer {
  name: "conv2_bn"
  type: "BN"
  bottom: "conv2"
  top: "conv2_bn"
  param {
    lr_mult: 1
    decay_mult: 0
  }
  param {
    lr_mult: 1
    decay_mult: 0
  }
  bn_param {
    scale_filler {
      type: "constant"
      value: 1
    }
    shift_filler {
      type: "constant"
      value: 0
    }
  }
}
layer {
  name: "drop1"
  type: "Dropout"
  bottom: "conv2_bn"
  top: "conv2_bn"
  dropout_param {
    dropout_ratio: 0.1
  }
}
layer {
  name: "conv2_1"
  type: "Convolution"
  bottom: "conv2_bn"
  top: "conv2_1"
  param {
    lr_mult: 1
  }
  param {
    lr_mult: 2
  }
  convolution_param {
    num_output: 70
    pad: 1
    kernel_size: 3
    stride: 1
    weight_filler {
      type: "xavier"
    }
    bias_filler {
      type: "constant"
    }
  }
}
layer {
  name: "relu2"
  type: "ReLU"
  bottom: "conv2_1"
  top: "conv2_1"
}
layer {
  name: "conv2_bn_1"
  type: "BN"
  bottom: "conv2_1"
  top: "conv2_bn_1"
  param {
    lr_mult: 1
    decay_mult: 0
  }
  param {
    lr_mult: 1
    decay_mult: 0
  }
  bn_param {
    scale_filler {
      type: "constant"
      value: 1
    }
    shift_filler {
      type: "constant"
      value: 0
    }
  }
}
layer {
  name: "drop1_1"
  type: "Dropout"
  bottom: "conv2_bn_1"
  top: "conv2_bn_1"
  dropout_param {
    dropout_ratio: 0.1
  }
}
layer {
  name: "pool2"
  type: "Pooling"
  bottom: "conv2_bn_1"
  top: "pool2"
  pooling_param {
    pool: MAX
    kernel_size: 2
    stride: 2
  }
}
layer {
  name: "ip1"
  type: "InnerProduct"
  bottom: "pool2"
  top: "ip1"
  param {
    lr_mult: 1
  }
  param {
    lr_mult: 2
  }
  inner_product_param {
    num_output: 300
    weight_filler {
      type: "xavier"
    }
    bias_filler {
      type: "constant"
    }
  }
}
layer {
  name: "relu3"
  type: "ReLU"
  bottom: "ip1"
  top: "ip1"
}
layer {
  name: "drop2"
  type: "Dropout"
  bottom: "ip1"
  top: "ip1"
  dropout_param {
    dropout_ratio: 0.3
  }
}
layer {
  name: "ip3"
  type: "InnerProduct"
  bottom: "ip1"
  top: "ip3"
  param {
    lr_mult: 1
  }
  param {
    lr_mult: 2
  }
  inner_product_param {
    num_output: 10
    weight_filler {
      type: "xavier"
    }
    bias_filler {
      type: "constant"
    }
  }
}
layer {
  name: "accuracy"
  type: "Accuracy"
  bottom: "ip3"
  bottom: "label"
  top: "accuracy"
  include {
    phase: TEST
  }
}
layer {
  name: "loss"
  type: "SoftmaxWithLoss"
  bottom: "ip3"
  bottom: "label"
  top: "loss"
}
I0806 09:45:16.529042 11748 layer_factory.hpp:74] Creating layer mnist
I0806 09:45:16.530041 11748 net.cpp:90] Creating Layer mnist
I0806 09:45:16.530041 11748 net.cpp:368] mnist -> data
I0806 09:45:16.530041 11748 net.cpp:368] mnist -> label
I0806 09:45:16.531041 11748 net.cpp:120] Setting up mnist
I0806 09:45:16.538043 11748 db.cpp:20] Opened leveldb mnist-test-leveldb
I0806 09:45:16.539042 11748 data_layer.cpp:52] output data size: 100,1,28,28
I0806 09:45:16.539042 11748 net.cpp:127] Top shape: 100 1 28 28 (78400)
I0806 09:45:16.540042 11748 net.cpp:127] Top shape: 100 (100)
I0806 09:45:16.540042 11748 layer_factory.hpp:74] Creating layer label_mnist_1_split
I0806 09:45:16.540042 11748 net.cpp:90] Creating Layer label_mnist_1_split
I0806 09:45:16.541043 11748 net.cpp:410] label_mnist_1_split <- label
I0806 09:45:16.541043 11748 net.cpp:368] label_mnist_1_split -> label_mnist_1_split_0
I0806 09:45:16.541043 11748 net.cpp:368] label_mnist_1_split -> label_mnist_1_split_1
I0806 09:45:16.542042 11748 net.cpp:120] Setting up label_mnist_1_split
I0806 09:45:16.542042 11748 net.cpp:127] Top shape: 100 (100)
I0806 09:45:16.542042 11748 net.cpp:127] Top shape: 100 (100)
I0806 09:45:16.542042 11748 layer_factory.hpp:74] Creating layer conv1
I0806 09:45:16.543042 11748 net.cpp:90] Creating Layer conv1
I0806 09:45:16.543042 11748 net.cpp:410] conv1 <- data
I0806 09:45:16.543042 11748 net.cpp:368] conv1 -> conv1
I0806 09:45:16.543042 11748 net.cpp:120] Setting up conv1
I0806 09:45:16.544042 11748 net.cpp:127] Top shape: 100 30 22 22 (1452000)
I0806 09:45:16.545042 11748 layer_factory.hpp:74] Creating layer relu1
I0806 09:45:16.545042 11748 net.cpp:90] Creating Layer relu1
I0806 09:45:16.545042 11748 net.cpp:410] relu1 <- conv1
I0806 09:45:16.545042 11748 net.cpp:357] relu1 -> conv1 (in-place)
I0806 09:45:16.546042 11748 net.cpp:120] Setting up relu1
I0806 09:45:16.546042 11748 net.cpp:127] Top shape: 100 30 22 22 (1452000)
I0806 09:45:16.547042 11748 layer_factory.hpp:74] Creating layer conv1_bn
I0806 09:45:16.547042 11748 net.cpp:90] Creating Layer conv1_bn
I0806 09:45:16.547042 11748 net.cpp:410] conv1_bn <- conv1
I0806 09:45:16.547042 11748 net.cpp:368] conv1_bn -> conv1_bn
I0806 09:45:16.548043 11748 net.cpp:120] Setting up conv1_bn
I0806 09:45:16.548043 11748 net.cpp:127] Top shape: 100 30 22 22 (1452000)
I0806 09:45:16.548043 11748 layer_factory.hpp:74] Creating layer pool1
I0806 09:45:16.548043 11748 net.cpp:90] Creating Layer pool1
I0806 09:45:16.549042 11748 net.cpp:410] pool1 <- conv1_bn
I0806 09:45:16.549042 11748 net.cpp:368] pool1 -> pool1
I0806 09:45:16.549042 11748 net.cpp:120] Setting up pool1
I0806 09:45:16.549042 11748 net.cpp:127] Top shape: 100 30 11 11 (363000)
I0806 09:45:16.550042 11748 layer_factory.hpp:74] Creating layer conv2
I0806 09:45:16.550042 11748 net.cpp:90] Creating Layer conv2
I0806 09:45:16.550042 11748 net.cpp:410] conv2 <- pool1
I0806 09:45:16.550042 11748 net.cpp:368] conv2 -> conv2
I0806 09:45:16.550042 11748 net.cpp:120] Setting up conv2
I0806 09:45:16.551043 11748 net.cpp:127] Top shape: 100 70 9 9 (567000)
I0806 09:45:16.551043 11748 layer_factory.hpp:74] Creating layer relu2
I0806 09:45:16.552042 11748 net.cpp:90] Creating Layer relu2
I0806 09:45:16.552042 11748 net.cpp:410] relu2 <- conv2
I0806 09:45:16.553042 11748 net.cpp:357] relu2 -> conv2 (in-place)
I0806 09:45:16.553042 11748 net.cpp:120] Setting up relu2
I0806 09:45:16.553042 11748 net.cpp:127] Top shape: 100 70 9 9 (567000)
I0806 09:45:16.554042 11748 layer_factory.hpp:74] Creating layer conv2_bn
I0806 09:45:16.554042 11748 net.cpp:90] Creating Layer conv2_bn
I0806 09:45:16.554042 11748 net.cpp:410] conv2_bn <- conv2
I0806 09:45:16.554042 11748 net.cpp:368] conv2_bn -> conv2_bn
I0806 09:45:16.555043 11748 net.cpp:120] Setting up conv2_bn
I0806 09:45:16.555043 11748 net.cpp:127] Top shape: 100 70 9 9 (567000)
I0806 09:45:16.555043 11748 layer_factory.hpp:74] Creating layer drop1
I0806 09:45:16.556043 11748 net.cpp:90] Creating Layer drop1
I0806 09:45:16.556043 11748 net.cpp:410] drop1 <- conv2_bn
I0806 09:45:16.556043 11748 net.cpp:357] drop1 -> conv2_bn (in-place)
I0806 09:45:16.556043 11748 net.cpp:120] Setting up drop1
I0806 09:45:16.557044 11748 net.cpp:127] Top shape: 100 70 9 9 (567000)
I0806 09:45:16.557044 11748 layer_factory.hpp:74] Creating layer conv2_1
I0806 09:45:16.557044 11748 net.cpp:90] Creating Layer conv2_1
I0806 09:45:16.557044 11748 net.cpp:410] conv2_1 <- conv2_bn
I0806 09:45:16.558043 11748 net.cpp:368] conv2_1 -> conv2_1
I0806 09:45:16.558043 11748 net.cpp:120] Setting up conv2_1
I0806 09:45:16.559043 11748 net.cpp:127] Top shape: 100 70 9 9 (567000)
I0806 09:45:16.559043 11748 layer_factory.hpp:74] Creating layer relu2
I0806 09:45:16.559043 11748 net.cpp:90] Creating Layer relu2
I0806 09:45:16.560044 11748 net.cpp:410] relu2 <- conv2_1
I0806 09:45:16.560044 11748 net.cpp:357] relu2 -> conv2_1 (in-place)
I0806 09:45:16.560044 11748 net.cpp:120] Setting up relu2
I0806 09:45:16.560044 11748 net.cpp:127] Top shape: 100 70 9 9 (567000)
I0806 09:45:16.561043 11748 layer_factory.hpp:74] Creating layer conv2_bn_1
I0806 09:45:16.561043 11748 net.cpp:90] Creating Layer conv2_bn_1
I0806 09:45:16.561043 11748 net.cpp:410] conv2_bn_1 <- conv2_1
I0806 09:45:16.562043 11748 net.cpp:368] conv2_bn_1 -> conv2_bn_1
I0806 09:45:16.562043 11748 net.cpp:120] Setting up conv2_bn_1
I0806 09:45:16.562043 11748 net.cpp:127] Top shape: 100 70 9 9 (567000)
I0806 09:45:16.562043 11748 layer_factory.hpp:74] Creating layer drop1_1
I0806 09:45:16.562043 11748 net.cpp:90] Creating Layer drop1_1
I0806 09:45:16.563043 11748 net.cpp:410] drop1_1 <- conv2_bn_1
I0806 09:45:16.563043 11748 net.cpp:357] drop1_1 -> conv2_bn_1 (in-place)
I0806 09:45:16.563043 11748 net.cpp:120] Setting up drop1_1
I0806 09:45:16.563043 11748 net.cpp:127] Top shape: 100 70 9 9 (567000)
I0806 09:45:16.564043 11748 layer_factory.hpp:74] Creating layer pool2
I0806 09:45:16.564043 11748 net.cpp:90] Creating Layer pool2
I0806 09:45:16.564043 11748 net.cpp:410] pool2 <- conv2_bn_1
I0806 09:45:16.565043 11748 net.cpp:368] pool2 -> pool2
I0806 09:45:16.565043 11748 net.cpp:120] Setting up pool2
I0806 09:45:16.565043 11748 net.cpp:127] Top shape: 100 70 5 5 (175000)
I0806 09:45:16.566043 11748 layer_factory.hpp:74] Creating layer ip1
I0806 09:45:16.566043 11748 net.cpp:90] Creating Layer ip1
I0806 09:45:16.566043 11748 net.cpp:410] ip1 <- pool2
I0806 09:45:16.566043 11748 net.cpp:368] ip1 -> ip1
I0806 09:45:16.567044 11748 net.cpp:120] Setting up ip1
I0806 09:45:16.570044 11748 net.cpp:127] Top shape: 100 300 (30000)
I0806 09:45:16.571043 11748 layer_factory.hpp:74] Creating layer relu3
I0806 09:45:16.571043 11748 net.cpp:90] Creating Layer relu3
I0806 09:45:16.571043 11748 net.cpp:410] relu3 <- ip1
I0806 09:45:16.572044 11748 net.cpp:357] relu3 -> ip1 (in-place)
I0806 09:45:16.572044 11748 net.cpp:120] Setting up relu3
I0806 09:45:16.572044 11748 net.cpp:127] Top shape: 100 300 (30000)
I0806 09:45:16.573045 11748 layer_factory.hpp:74] Creating layer drop2
I0806 09:45:16.573045 11748 net.cpp:90] Creating Layer drop2
I0806 09:45:16.573045 11748 net.cpp:410] drop2 <- ip1
I0806 09:45:16.573045 11748 net.cpp:357] drop2 -> ip1 (in-place)
I0806 09:45:16.574044 11748 net.cpp:120] Setting up drop2
I0806 09:45:16.574044 11748 net.cpp:127] Top shape: 100 300 (30000)
I0806 09:45:16.574044 11748 layer_factory.hpp:74] Creating layer ip3
I0806 09:45:16.574044 11748 net.cpp:90] Creating Layer ip3
I0806 09:45:16.575044 11748 net.cpp:410] ip3 <- ip1
I0806 09:45:16.575044 11748 net.cpp:368] ip3 -> ip3
I0806 09:45:16.575044 11748 net.cpp:120] Setting up ip3
I0806 09:45:16.575044 11748 net.cpp:127] Top shape: 100 10 (1000)
I0806 09:45:16.576045 11748 layer_factory.hpp:74] Creating layer ip3_ip3_0_split
I0806 09:45:16.576045 11748 net.cpp:90] Creating Layer ip3_ip3_0_split
I0806 09:45:16.576045 11748 net.cpp:410] ip3_ip3_0_split <- ip3
I0806 09:45:16.576045 11748 net.cpp:368] ip3_ip3_0_split -> ip3_ip3_0_split_0
I0806 09:45:16.577044 11748 net.cpp:368] ip3_ip3_0_split -> ip3_ip3_0_split_1
I0806 09:45:16.577044 11748 net.cpp:120] Setting up ip3_ip3_0_split
I0806 09:45:16.577044 11748 net.cpp:127] Top shape: 100 10 (1000)
I0806 09:45:16.577044 11748 net.cpp:127] Top shape: 100 10 (1000)
I0806 09:45:16.578044 11748 layer_factory.hpp:74] Creating layer accuracy
I0806 09:45:16.578044 11748 net.cpp:90] Creating Layer accuracy
I0806 09:45:16.578044 11748 net.cpp:410] accuracy <- ip3_ip3_0_split_0
I0806 09:45:16.578044 11748 net.cpp:410] accuracy <- label_mnist_1_split_0
I0806 09:45:16.579044 11748 net.cpp:368] accuracy -> accuracy
I0806 09:45:16.579044 11748 net.cpp:120] Setting up accuracy
…
