…
I0805 14:52:42.418288  1392 net.cpp:287] The NetState phase (0) differed from the phase (1) specified by a rule in layer mnist
I0805 14:52:42.418288  1392 net.cpp:287] The NetState phase (0) differed from the phase (1) specified by a rule in layer accuracy
I0805 14:52:42.418288  1392 net.cpp:42] Initializing net from parameters: 
name: "LeNet"
state {
  phase: TRAIN
}
layer {
  name: "mnist"
  type: "Data"
  top: "data"
  top: "label"
  include {
    phase: TRAIN
  }
  transform_param {
    scale: 0.00390625
  }
  data_param {
    source: "mnist-train-leveldb"
    batch_size: 64
    backend: LEVELDB
  }
}
layer {
  name: "conv1"
  type: "Convolution"
  bottom: "data"
  top: "conv1"
  param {
    lr_mult: 1
  }
  param {
    lr_mult: 2
  }
  convolution_param {
    num_output: 32
    kernel_size: 6
    stride: 1
    weight_filler {
      type: "xavier"
    }
    bias_filler {
      type: "constant"
    }
  }
}
layer {
  name: "relu1"
  type: "ReLU"
  bottom: "conv1"
  top: "conv1"
}
layer {
  name: "conv1_bn"
  type: "BN"
  bottom: "conv1"
  top: "conv1_bn"
  param {
    lr_mult: 1
    decay_mult: 0
  }
  param {
    lr_mult: 1
    decay_mult: 0
  }
  bn_param {
    scale_filler {
      type: "constant"
      value: 1
    }
    shift_filler {
      type: "constant"
      value: 0
    }
  }
}
layer {
  name: "drop1"
  type: "Dropout"
  bottom: "conv1_bn"
  top: "conv1_bn"
  dropout_param {
    dropout_ratio: 0
  }
}
layer {
  name: "pool1"
  type: "Pooling"
  bottom: "conv1_bn"
  top: "pool1"
  pooling_param {
    pool: MAX
    kernel_size: 3
    stride: 2
  }
}
layer {
  name: "conv2"
  type: "Convolution"
  bottom: "pool1"
  top: "conv2"
  param {
    lr_mult: 1
  }
  param {
    lr_mult: 2
  }
  convolution_param {
    num_output: 72
    kernel_size: 3
    stride: 1
    weight_filler {
      type: "xavier"
    }
    bias_filler {
      type: "constant"
    }
  }
}
layer {
  name: "relu2"
  type: "ReLU"
  bottom: "conv2"
  top: "conv2"
}
layer {
  name: "conv2_bn"
  type: "BN"
  bottom: "conv2"
  top: "conv2_bn"
  param {
    lr_mult: 1
    decay_mult: 0
  }
  param {
    lr_mult: 1
    decay_mult: 0
  }
  bn_param {
    scale_filler {
      type: "constant"
      value: 1
    }
    shift_filler {
      type: "constant"
      value: 0
    }
  }
}
layer {
  name: "drop2"
  type: "Dropout"
  bottom: "conv2_bn"
  top: "conv2_bn"
  dropout_param {
    dropout_ratio: 0.1
  }
}
layer {
  name: "pool2"
  type: "Pooling"
  bottom: "conv2_bn"
  top: "pool2"
  pooling_param {
    pool: MAX
    kernel_size: 2
    stride: 2
  }
}
layer {
  name: "ip1"
  type: "InnerProduct"
  bottom: "pool2"
  top: "ip1"
  param {
    lr_mult: 1
  }
  param {
    lr_mult: 2
  }
  inner_product_param {
    num_output: 320
    weight_filler {
      type: "xavier"
    }
    bias_filler {
      type: "constant"
    }
  }
}
layer {
  name: "relu3"
  type: "ReLU"
  bottom: "ip1"
  top: "ip1"
}
layer {
  name: "drop3"
  type: "Dropout"
  bottom: "ip1"
  top: "ip1"
  dropout_param {
    dropout_ratio: 0.3
  }
}
layer {
  name: "ip2"
  type: "InnerProduct"
  bottom: "ip1"
  top: "ip2"
  param {
    lr_mult: 1
  }
  param {
    lr_mult: 2
  }
  inner_product_param {
    num_output: 10
    weight_filler {
      type: "xavier"
    }
    bias_filler {
      type: "constant"
    }
  }
}
layer {
  name: "loss"
  type: "SoftmaxWithLoss"
  bottom: "ip2"
  bottom: "label"
  top: "loss"
}
I0805 14:52:42.457290  1392 layer_factory.hpp:74] Creating layer mnist
I0805 14:52:42.459291  1392 net.cpp:90] Creating Layer mnist
I0805 14:52:42.460291  1392 net.cpp:368] mnist -> data
I0805 14:52:42.460291  1392 net.cpp:368] mnist -> label
I0805 14:52:42.461292  1392 net.cpp:120] Setting up mnist
I0805 14:52:42.468291  1392 db.cpp:20] Opened leveldb mnist-train-leveldb
I0805 14:52:42.469291  1392 data_layer.cpp:52] output data size: 64,1,28,28
I0805 14:52:42.469291  1392 net.cpp:127] Top shape: 64 1 28 28 (50176)
I0805 14:52:42.470291  1392 net.cpp:127] Top shape: 64 (64)
I0805 14:52:42.470291  1392 layer_factory.hpp:74] Creating layer conv1
I0805 14:52:42.471292  1392 net.cpp:90] Creating Layer conv1
I0805 14:52:42.472291  1392 net.cpp:410] conv1 <- data
I0805 14:52:42.473291  1392 net.cpp:368] conv1 -> conv1
I0805 14:52:42.473291  1392 net.cpp:120] Setting up conv1
I0805 14:52:42.474292  1392 common.cpp:24] System entropy source not available, using fallback algorithm to generate seed instead.
I0805 14:52:42.539295  1392 net.cpp:127] Top shape: 64 32 23 23 (1083392)
I0805 14:52:42.540295  1392 layer_factory.hpp:74] Creating layer relu1
I0805 14:52:42.541296  1392 net.cpp:90] Creating Layer relu1
I0805 14:52:42.541296  1392 net.cpp:410] relu1 <- conv1
I0805 14:52:42.542295  1392 net.cpp:357] relu1 -> conv1 (in-place)
I0805 14:52:42.542295  1392 net.cpp:120] Setting up relu1
I0805 14:52:42.543295  1392 net.cpp:127] Top shape: 64 32 23 23 (1083392)
I0805 14:52:42.544296  1392 layer_factory.hpp:74] Creating layer conv1_bn
I0805 14:52:42.544296  1392 net.cpp:90] Creating Layer conv1_bn
I0805 14:52:42.544296  1392 net.cpp:410] conv1_bn <- conv1
I0805 14:52:42.545296  1392 net.cpp:368] conv1_bn -> conv1_bn
I0805 14:52:42.545296  1392 net.cpp:120] Setting up conv1_bn
I0805 14:52:42.546296  1392 net.cpp:127] Top shape: 64 32 23 23 (1083392)
I0805 14:52:42.546296  1392 layer_factory.hpp:74] Creating layer drop1
I0805 14:52:42.547297  1392 net.cpp:90] Creating Layer drop1
I0805 14:52:42.547297  1392 net.cpp:410] drop1 <- conv1_bn
I0805 14:52:42.548296  1392 net.cpp:357] drop1 -> conv1_bn (in-place)
I0805 14:52:42.548296  1392 net.cpp:120] Setting up drop1
I0805 14:52:42.549296  1392 net.cpp:127] Top shape: 64 32 23 23 (1083392)
I0805 14:52:42.550297  1392 layer_factory.hpp:74] Creating layer pool1
I0805 14:52:42.550297  1392 net.cpp:90] Creating Layer pool1
I0805 14:52:42.551296  1392 net.cpp:410] pool1 <- conv1_bn
I0805 14:52:42.551296  1392 net.cpp:368] pool1 -> pool1
I0805 14:52:42.552296  1392 net.cpp:120] Setting up pool1
I0805 14:52:42.552296  1392 net.cpp:127] Top shape: 64 32 11 11 (247808)
I0805 14:52:42.553297  1392 layer_factory.hpp:74] Creating layer conv2
I0805 14:52:42.553297  1392 net.cpp:90] Creating Layer conv2
I0805 14:52:42.554296  1392 net.cpp:410] conv2 <- pool1
I0805 14:52:42.554296  1392 net.cpp:368] conv2 -> conv2
I0805 14:52:42.554296  1392 net.cpp:120] Setting up conv2
I0805 14:52:42.555296  1392 net.cpp:127] Top shape: 64 72 9 9 (373248)
I0805 14:52:42.555296  1392 layer_factory.hpp:74] Creating layer relu2
I0805 14:52:42.556296  1392 net.cpp:90] Creating Layer relu2
I0805 14:52:42.556296  1392 net.cpp:410] relu2 <- conv2
I0805 14:52:42.556296  1392 net.cpp:357] relu2 -> conv2 (in-place)
I0805 14:52:42.556296  1392 net.cpp:120] Setting up relu2
I0805 14:52:42.557296  1392 net.cpp:127] Top shape: 64 72 9 9 (373248)
I0805 14:52:42.557296  1392 layer_factory.hpp:74] Creating layer conv2_bn
I0805 14:52:42.557296  1392 net.cpp:90] Creating Layer conv2_bn
I0805 14:52:42.558296  1392 net.cpp:410] conv2_bn <- conv2
I0805 14:52:42.558296  1392 net.cpp:368] conv2_bn -> conv2_bn
I0805 14:52:42.558296  1392 net.cpp:120] Setting up conv2_bn
I0805 14:52:42.558296  1392 net.cpp:127] Top shape: 64 72 9 9 (373248)
I0805 14:52:42.559296  1392 layer_factory.hpp:74] Creating layer drop2
I0805 14:52:42.559296  1392 net.cpp:90] Creating Layer drop2
I0805 14:52:42.559296  1392 net.cpp:410] drop2 <- conv2_bn
I0805 14:52:42.559296  1392 net.cpp:357] drop2 -> conv2_bn (in-place)
I0805 14:52:42.559296  1392 net.cpp:120] Setting up drop2
I0805 14:52:42.560297  1392 net.cpp:127] Top shape: 64 72 9 9 (373248)
I0805 14:52:42.560297  1392 layer_factory.hpp:74] Creating layer pool2
I0805 14:52:42.560297  1392 net.cpp:90] Creating Layer pool2
I0805 14:52:42.561296  1392 net.cpp:410] pool2 <- conv2_bn
I0805 14:52:42.561296  1392 net.cpp:368] pool2 -> pool2
I0805 14:52:42.561296  1392 net.cpp:120] Setting up pool2
I0805 14:52:42.562296  1392 net.cpp:127] Top shape: 64 72 5 5 (115200)
I0805 14:52:42.562296  1392 layer_factory.hpp:74] Creating layer ip1
I0805 14:52:42.562296  1392 net.cpp:90] Creating Layer ip1
I0805 14:52:42.563297  1392 net.cpp:410] ip1 <- pool2
I0805 14:52:42.563297  1392 net.cpp:368] ip1 -> ip1
I0805 14:52:42.563297  1392 net.cpp:120] Setting up ip1
I0805 14:52:42.567297  1392 net.cpp:127] Top shape: 64 320 (20480)
I0805 14:52:42.568297  1392 layer_factory.hpp:74] Creating layer relu3
I0805 14:52:42.568297  1392 net.cpp:90] Creating Layer relu3
I0805 14:52:42.569298  1392 net.cpp:410] relu3 <- ip1
I0805 14:52:42.569298  1392 net.cpp:357] relu3 -> ip1 (in-place)
I0805 14:52:42.569298  1392 net.cpp:120] Setting up relu3
I0805 14:52:42.570297  1392 net.cpp:127] Top shape: 64 320 (20480)
I0805 14:52:42.570297  1392 layer_factory.hpp:74] Creating layer drop3
I0805 14:52:42.571297  1392 net.cpp:90] Creating Layer drop3
I0805 14:52:42.571297  1392 net.cpp:410] drop3 <- ip1
I0805 14:52:42.571297  1392 net.cpp:357] drop3 -> ip1 (in-place)
I0805 14:52:42.571297  1392 net.cpp:120] Setting up drop3
I0805 14:52:42.572298  1392 net.cpp:127] Top shape: 64 320 (20480)
I0805 14:52:42.572298  1392 layer_factory.hpp:74] Creating layer ip2
I0805 14:52:42.572298  1392 net.cpp:90] Creating Layer ip2
I0805 14:52:42.572298  1392 net.cpp:410] ip2 <- ip1
I0805 14:52:42.572298  1392 net.cpp:368] ip2 -> ip2
I0805 14:52:42.573297  1392 net.cpp:120] Setting up ip2
I0805 14:52:42.573297  1392 net.cpp:127] Top shape: 64 10 (640)
I0805 14:52:42.573297  1392 layer_factory.hpp:74] Creating layer loss
I0805 14:52:42.573297  1392 net.cpp:90] Creating Layer loss
I0805 14:52:42.574297  1392 net.cpp:410] loss <- ip2
I0805 14:52:42.574297  1392 net.cpp:410] loss <- label
I0805 14:52:42.574297  1392 net.cpp:368] loss -> loss
I0805 14:52:42.574297  1392 net.cpp:120] Setting up loss
I0805 14:52:42.575297  1392 layer_factory.hpp:74] Creating layer loss
…
I0805 14:52:42.581298  1392 solver.cpp:154] Creating test net (#0) specified by net file: lenet_train_test.prototxt
I0805 14:52:42.582298  1392 net.cpp:287] The NetState phase (1) differed from the phase (0) specified by a rule in layer mnist
I0805 14:52:42.582298  1392 net.cpp:42] Initializing net from parameters: 
name: "LeNet"
state {
  phase: TEST
}
layer {
  name: "mnist"
  type: "Data"
  top: "data"
  top: "label"
  include {
    phase: TEST
  }
  transform_param {
    scale: 0.00390625
  }
  data_param {
    source: "mnist-test-leveldb"
    batch_size: 100
    backend: LEVELDB
  }
}
layer {
  name: "conv1"
  type: "Convolution"
  bottom: "data"
  top: "conv1"
  param {
    lr_mult: 1
  }
  param {
    lr_mult: 2
  }
  convolution_param {
    num_output: 32
    kernel_size: 6
    stride: 1
    weight_filler {
      type: "xavier"
    }
    bias_filler {
      type: "constant"
    }
  }
}
layer {
  name: "relu1"
  type: "ReLU"
  bottom: "conv1"
  top: "conv1"
}
layer {
  name: "conv1_bn"
  type: "BN"
  bottom: "conv1"
  top: "conv1_bn"
  param {
    lr_mult: 1
    decay_mult: 0
  }
  param {
    lr_mult: 1
    decay_mult: 0
  }
  bn_param {
    scale_filler {
      type: "constant"
      value: 1
    }
    shift_filler {
      type: "constant"
      value: 0
    }
  }
}
layer {
  name: "drop1"
  type: "Dropout"
  bottom: "conv1_bn"
  top: "conv1_bn"
  dropout_param {
    dropout_ratio: 0
  }
}
layer {
  name: "pool1"
  type: "Pooling"
  bottom: "conv1_bn"
  top: "pool1"
  pooling_param {
    pool: MAX
    kernel_size: 3
    stride: 2
  }
}
layer {
  name: "conv2"
  type: "Convolution"
  bottom: "pool1"
  top: "conv2"
  param {
    lr_mult: 1
  }
  param {
    lr_mult: 2
  }
  convolution_param {
    num_output: 72
    kernel_size: 3
    stride: 1
    weight_filler {
      type: "xavier"
    }
    bias_filler {
      type: "constant"
    }
  }
}
layer {
  name: "relu2"
  type: "ReLU"
  bottom: "conv2"
  top: "conv2"
}
layer {
  name: "conv2_bn"
  type: "BN"
  bottom: "conv2"
  top: "conv2_bn"
  param {
    lr_mult: 1
    decay_mult: 0
  }
  param {
    lr_mult: 1
    decay_mult: 0
  }
  bn_param {
    scale_filler {
      type: "constant"
      value: 1
    }
    shift_filler {
      type: "constant"
      value: 0
    }
  }
}
layer {
  name: "drop2"
  type: "Dropout"
  bottom: "conv2_bn"
  top: "conv2_bn"
  dropout_param {
    dropout_ratio: 0.1
  }
}
layer {
  name: "pool2"
  type: "Pooling"
  bottom: "conv2_bn"
  top: "pool2"
  pooling_param {
    pool: MAX
    kernel_size: 2
    stride: 2
  }
}
layer {
  name: "ip1"
  type: "InnerProduct"
  bottom: "pool2"
  top: "ip1"
  param {
    lr_mult: 1
  }
  param {
    lr_mult: 2
  }
  inner_product_param {
    num_output: 320
    weight_filler {
      type: "xavier"
    }
    bias_filler {
      type: "constant"
    }
  }
}
layer {
  name: "relu3"
  type: "ReLU"
  bottom: "ip1"
  top: "ip1"
}
layer {
  name: "drop3"
  type: "Dropout"
  bottom: "ip1"
  top: "ip1"
  dropout_param {
    dropout_ratio: 0.3
  }
}
layer {
  name: "ip2"
  type: "InnerProduct"
  bottom: "ip1"
  top: "ip2"
  param {
    lr_mult: 1
  }
  param {
    lr_mult: 2
  }
  inner_product_param {
    num_output: 10
    weight_filler {
      type: "xavier"
    }
    bias_filler {
      type: "constant"
    }
  }
}
layer {
  name: "accuracy"
  type: "Accuracy"
  bottom: "ip2"
  bottom: "label"
  top: "accuracy"
  include {
    phase: TEST
  }
}
layer {
  name: "loss"
  type: "SoftmaxWithLoss"
  bottom: "ip2"
  bottom: "label"
  top: "loss"
}
I0805 14:52:42.609299  1392 layer_factory.hpp:74] Creating layer mnist
I0805 14:52:42.610299  1392 net.cpp:90] Creating Layer mnist
I0805 14:52:42.610299  1392 net.cpp:368] mnist -> data
I0805 14:52:42.610299  1392 net.cpp:368] mnist -> label
I0805 14:52:42.611299  1392 net.cpp:120] Setting up mnist
I0805 14:52:42.618300  1392 db.cpp:20] Opened leveldb mnist-test-leveldb
I0805 14:52:42.619300  1392 data_layer.cpp:52] output data size: 100,1,28,28
I0805 14:52:42.619300  1392 net.cpp:127] Top shape: 100 1 28 28 (78400)
I0805 14:52:42.620301  1392 net.cpp:127] Top shape: 100 (100)
I0805 14:52:42.620301  1392 layer_factory.hpp:74] Creating layer label_mnist_1_split
I0805 14:52:42.620301  1392 net.cpp:90] Creating Layer label_mnist_1_split
I0805 14:52:42.620301  1392 net.cpp:410] label_mnist_1_split <- label
I0805 14:52:42.621300  1392 net.cpp:368] label_mnist_1_split -> label_mnist_1_split_0
I0805 14:52:42.621300  1392 net.cpp:368] label_mnist_1_split -> label_mnist_1_split_1
I0805 14:52:42.621300  1392 net.cpp:120] Setting up label_mnist_1_split
I0805 14:52:42.622300  1392 net.cpp:127] Top shape: 100 (100)
I0805 14:52:42.622300  1392 net.cpp:127] Top shape: 100 (100)
I0805 14:52:42.622300  1392 layer_factory.hpp:74] Creating layer conv1
I0805 14:52:42.622300  1392 net.cpp:90] Creating Layer conv1
I0805 14:52:42.623301  1392 net.cpp:410] conv1 <- data
I0805 14:52:42.623301  1392 net.cpp:368] conv1 -> conv1
I0805 14:52:42.623301  1392 net.cpp:120] Setting up conv1
I0805 14:52:42.624300  1392 net.cpp:127] Top shape: 100 32 23 23 (1692800)
I0805 14:52:42.625300  1392 layer_factory.hpp:74] Creating layer relu1
I0805 14:52:42.625300  1392 net.cpp:90] Creating Layer relu1
I0805 14:52:42.625300  1392 net.cpp:410] relu1 <- conv1
I0805 14:52:42.625300  1392 net.cpp:357] relu1 -> conv1 (in-place)
I0805 14:52:42.626301  1392 net.cpp:120] Setting up relu1
I0805 14:52:42.626301  1392 net.cpp:127] Top shape: 100 32 23 23 (1692800)
I0805 14:52:42.626301  1392 layer_factory.hpp:74] Creating layer conv1_bn
I0805 14:52:42.626301  1392 net.cpp:90] Creating Layer conv1_bn
I0805 14:52:42.627300  1392 net.cpp:410] conv1_bn <- conv1
I0805 14:52:42.627300  1392 net.cpp:368] conv1_bn -> conv1_bn
I0805 14:52:42.627300  1392 net.cpp:120] Setting up conv1_bn
I0805 14:52:42.627300  1392 net.cpp:127] Top shape: 100 32 23 23 (1692800)
I0805 14:52:42.628300  1392 layer_factory.hpp:74] Creating layer drop1
I0805 14:52:42.628300  1392 net.cpp:90] Creating Layer drop1
I0805 14:52:42.628300  1392 net.cpp:410] drop1 <- conv1_bn
I0805 14:52:42.628300  1392 net.cpp:357] drop1 -> conv1_bn (in-place)
I0805 14:52:42.629300  1392 net.cpp:120] Setting up drop1
I0805 14:52:42.629300  1392 net.cpp:127] Top shape: 100 32 23 23 (1692800)
I0805 14:52:42.629300  1392 layer_factory.hpp:74] Creating layer pool1
I0805 14:52:42.629300  1392 net.cpp:90] Creating Layer pool1
I0805 14:52:42.630300  1392 net.cpp:410] pool1 <- conv1_bn
I0805 14:52:42.630300  1392 net.cpp:368] pool1 -> pool1
I0805 14:52:42.630300  1392 net.cpp:120] Setting up pool1
I0805 14:52:42.631300  1392 net.cpp:127] Top shape: 100 32 11 11 (387200)
I0805 14:52:42.631300  1392 layer_factory.hpp:74] Creating layer conv2
I0805 14:52:42.631300  1392 net.cpp:90] Creating Layer conv2
I0805 14:52:42.632300  1392 net.cpp:410] conv2 <- pool1
I0805 14:52:42.632300  1392 net.cpp:368] conv2 -> conv2
I0805 14:52:42.632300  1392 net.cpp:120] Setting up conv2
I0805 14:52:42.633301  1392 net.cpp:127] Top shape: 100 72 9 9 (583200)
I0805 14:52:42.633301  1392 layer_factory.hpp:74] Creating layer relu2
I0805 14:52:42.633301  1392 net.cpp:90] Creating Layer relu2
I0805 14:52:42.634301  1392 net.cpp:410] relu2 <- conv2
I0805 14:52:42.634301  1392 net.cpp:357] relu2 -> conv2 (in-place)
I0805 14:52:42.634301  1392 net.cpp:120] Setting up relu2
I0805 14:52:42.635301  1392 net.cpp:127] Top shape: 100 72 9 9 (583200)
I0805 14:52:42.635301  1392 layer_factory.hpp:74] Creating layer conv2_bn
I0805 14:52:42.635301  1392 net.cpp:90] Creating Layer conv2_bn
I0805 14:52:42.635301  1392 net.cpp:410] conv2_bn <- conv2
I0805 14:52:42.636301  1392 net.cpp:368] conv2_bn -> conv2_bn
I0805 14:52:42.636301  1392 net.cpp:120] Setting up conv2_bn
I0805 14:52:42.636301  1392 net.cpp:127] Top shape: 100 72 9 9 (583200)
I0805 14:52:42.636301  1392 layer_factory.hpp:74] Creating layer drop2
I0805 14:52:42.637301  1392 net.cpp:90] Creating Layer drop2
I0805 14:52:42.637301  1392 net.cpp:410] drop2 <- conv2_bn
I0805 14:52:42.637301  1392 net.cpp:357] drop2 -> conv2_bn (in-place)
I0805 14:52:42.637301  1392 net.cpp:120] Setting up drop2
I0805 14:52:42.638301  1392 net.cpp:127] Top shape: 100 72 9 9 (583200)
I0805 14:52:42.638301  1392 layer_factory.hpp:74] Creating layer pool2
I0805 14:52:42.638301  1392 net.cpp:90] Creating Layer pool2
I0805 14:52:42.638301  1392 net.cpp:410] pool2 <- conv2_bn
I0805 14:52:42.639302  1392 net.cpp:368] pool2 -> pool2
I0805 14:52:42.639302  1392 net.cpp:120] Setting up pool2
I0805 14:52:42.639302  1392 net.cpp:127] Top shape: 100 72 5 5 (180000)
I0805 14:52:42.639302  1392 layer_factory.hpp:74] Creating layer ip1
I0805 14:52:42.640301  1392 net.cpp:90] Creating Layer ip1
I0805 14:52:42.640301  1392 net.cpp:410] ip1 <- pool2
I0805 14:52:42.640301  1392 net.cpp:368] ip1 -> ip1
I0805 14:52:42.641301  1392 net.cpp:120] Setting up ip1
I0805 14:52:42.645301  1392 net.cpp:127] Top shape: 100 320 (32000)
I0805 14:52:42.645301  1392 layer_factory.hpp:74] Creating layer relu3
I0805 14:52:42.646301  1392 net.cpp:90] Creating Layer relu3
I0805 14:52:42.646301  1392 net.cpp:410] relu3 <- ip1
I0805 14:52:42.646301  1392 net.cpp:357] relu3 -> ip1 (in-place)
I0805 14:52:42.647301  1392 net.cpp:120] Setting up relu3
I0805 14:52:42.647301  1392 net.cpp:127] Top shape: 100 320 (32000)
I0805 14:52:42.648301  1392 layer_factory.hpp:74] Creating layer drop3
I0805 14:52:42.648301  1392 net.cpp:90] Creating Layer drop3
I0805 14:52:42.648301  1392 net.cpp:410] drop3 <- ip1
I0805 14:52:42.649302  1392 net.cpp:357] drop3 -> ip1 (in-place)
I0805 14:52:42.649302  1392 net.cpp:120] Setting up drop3
I0805 14:52:42.649302  1392 net.cpp:127] Top shape: 100 320 (32000)
I0805 14:52:42.649302  1392 layer_factory.hpp:74] Creating layer ip2
I0805 14:52:42.650302  1392 net.cpp:90] Creating Layer ip2
I0805 14:52:42.650302  1392 net.cpp:410] ip2 <- ip1
I0805 14:52:42.650302  1392 net.cpp:368] ip2 -> ip2
I0805 14:52:42.650302  1392 net.cpp:120] Setting up ip2
I0805 14:52:42.651303  1392 net.cpp:127] Top shape: 100 10 (1000)
I0805 14:52:42.651303  1392 layer_factory.hpp:74] Creating layer ip2_ip2_0_split
I0805 14:52:42.651303  1392 net.cpp:90] Creating Layer ip2_ip2_0_split
I0805 14:52:42.651303  1392 net.cpp:410] ip2_ip2_0_split <- ip2
I0805 14:52:42.652302  1392 net.cpp:368] ip2_ip2_0_split -> ip2_ip2_0_split_0
I0805 14:52:42.652302  1392 net.cpp:368] ip2_ip2_0_split -> ip2_ip2_0_split_1
I0805 14:52:42.652302  1392 net.cpp:120] Setting up ip2_ip2_0_split
I0805 14:52:42.652302  1392 net.cpp:127] Top shape: 100 10 (1000)
I0805 14:52:42.653302  1392 net.cpp:127] Top shape: 100 10 (1000)
I0805 14:52:42.653302  1392 layer_factory.hpp:74] Creating layer accuracy
I0805 14:52:42.653302  1392 net.cpp:90] Creating Layer accuracy
I0805 14:52:42.654302  1392 net.cpp:410] accuracy <- ip2_ip2_0_split_0
I0805 14:52:42.654302  1392 net.cpp:410] accuracy <- label_mnist_1_split_0
I0805 14:52:42.654302  1392 net.cpp:368] accuracy -> accuracy
I0805 14:52:42.655303  1392 net.cpp:120] Setting up accuracy
…
